…
ts/miniImageNet--ravi', encoder_model='Conv64F_Li', episodeSize=1, episode_test_num=1000, episode_train_num=10000, episode_val_num=1000, epochs=40, imageSize=84, lr=0.01, lr_decay_epochs=[60, 80], lr_decay_rate=0.1, mode='train', momentum=0.9, nc=3, neighbor_k=3, ngpu=1, outf='./results/Metric_Based_FSL/ADM_Conv64F_Li_Epoch_40_miniImageNet_84_84_5Way_1Shot', print_freq=100, query_num=10, resume='', shot_num=1, start_epoch=0, test_aug=False, testepisodeSize=1, train_aug=True, way_num=5, weight_decay=0.0005, workers=8)
Fewshot_model(
  (features): Conv64F_Li(
    (features): Sequential(
      (0): Conv2d(3, 64, kernel_size=(3, 3), stride=(1, 1), padding=(1, 1))
      (1): BatchNorm2d(64, eps=1e-05, momentum=0.1, affine=True, track_running_stats=True)
      (2): LeakyReLU(negative_slope=0.2, inplace=True)
      (3): MaxPool2d(kernel_size=2, stride=2, padding=0, dilation=1, ceil_mode=False)
      (4): Conv2d(64, 64, kernel_size=(3, 3), stride=(1, 1), padding=(1, 1))
      (5): BatchNorm2d(64, eps=1e-05, momentum=0.1, affine=True, track_running_stats=True)
      (6): LeakyReLU(negative_slope=0.2, inplace=True)
      (7): MaxPool2d(kernel_size=2, stride=2, padding=0, dilation=1, ceil_mode=False)
      (8): Conv2d(64, 64, kernel_size=(3, 3), stride=(1, 1), padding=(1, 1))
      (9): BatchNorm2d(64, eps=1e-05, momentum=0.1, affine=True, track_running_stats=True)
      (10): LeakyReLU(negative_slope=0.2, inplace=True)
      (11): Conv2d(64, 64, kernel_size=(3, 3), stride=(1, 1), padding=(1, 1))
      (12): BatchNorm2d(64, eps=1e-05, momentum=0.1, affine=True, track_running_stats=True)
      (13): LeakyReLU(negative_slope=0.2, inplace=True)
    )
  )
  (classifier): ADM_Metric(
    (Norm_layer): BatchNorm1d(10, eps=1e-05, momentum=0.1, affine=True, track_running_stats=True)
    (FC_layer): Conv1d(1, 1, kernel_size=(2,), stride=(1,), dilation=(5,), bias=False)
  )
)
===================================== Training on the train set =====================================
==================== Epoch 0 ====================
Epoch-(0): [100/10000]	Time 0.10 (0.12)	Data 0.00 (0.01)	Loss 1.50 (1.57)	Prec@1 46.00 (30.00)
Epoch-(0): [200/10000]	Time 0.08 (0.11)	Data 0.00 (0.01)	Loss 1.51 (1.56)	Prec@1 34.00 (30.60)
…
