…
=40, imageSize=84, lr=0.01, lr_decay_epochs=[60, 80], lr_decay_rate=0.1, mode='test', momentum=0.9, nc=3, neighbor_k=3, ngpu=1, outf='./results/Metric_Based_FSL/ADM_Conv64F_Li_Epoch_40_miniImageNet_84_84_5Way_1Shot/', print_freq=100, query_num=15, resume='./results/Metric_Based_FSL/ADM_Conv64F_Li_Epoch_40_miniImageNet_84_84_5Way_1Shot/', shot_num=1, start_epoch=0, test_aug=False, testepisodeSize=1, train_aug=True, train_classes=64, way_num=5, weight_decay=0.0005, workers=4)
Model_with_reused_Encoder(
  (model): Fewshot_model(
    (features): Conv64F_Li(
      (features): Sequential(
        (0): Conv2d(3, 64, kernel_size=(3, 3), stride=(1, 1), padding=(1, 1))
        (1): BatchNorm2d(64, eps=1e-05, momentum=0.1, affine=True, track_running_stats=True)
        (2): LeakyReLU(negative_slope=0.2, inplace=True)
        (3): MaxPool2d(kernel_size=2, stride=2, padding=0, dilation=1, ceil_mode=False)
        (4): Conv2d(64, 64, kernel_size=(3, 3), stride=(1, 1), padding=(1, 1))
        (5): BatchNorm2d(64, eps=1e-05, momentum=0.1, affine=True, track_running_stats=True)
        (6): LeakyReLU(negative_slope=0.2, inplace=True)
        (7): MaxPool2d(kernel_size=2, stride=2, padding=0, dilation=1, ceil_mode=False)
        (8): Conv2d(64, 64, kernel_size=(3, 3), stride=(1, 1), padding=(1, 1))
        (9): BatchNorm2d(64, eps=1e-05, momentum=0.1, affine=True, track_running_stats=True)
        (10): LeakyReLU(negative_slope=0.2, inplace=True)
        (11): Conv2d(64, 64, kernel_size=(3, 3), stride=(1, 1), padding=(1, 1))
        (12): BatchNorm2d(64, eps=1e-05, momentum=0.1, affine=True, track_running_stats=True)
        (13): LeakyReLU(negative_slope=0.2, inplace=True)
      )
    )
    (classifier): ADM_Metric(
      (Norm_layer): BatchNorm1d(10, eps=1e-05, momentum=0.1, affine=True, track_running_stats=True)
      (FC_layer): Conv1d(1, 1, kernel_size=(2,), stride=(1,), dilation=(5,), bias=False)
    )
  )
  (features): Sequential(
    (0): Sequential(
      (0): Conv2d(3, 64, kernel_size=(3, 3), stride=(1, 1), padding=(1, 1))
      (1): BatchNorm2d(64, eps=1e-05, momentum=0.1, affine=True, track_running_stats=True)
      (2): LeakyReLU(negative_slope=0.2, inplace=True)
      (3): MaxPool2d(kernel_size=2, stride=2, padding=0, dilation=1, ceil_mode=False)
      (4): Conv2d(64, 64, kernel_size=(3, 3), stride=(1, 1), padding=(1, 1))
      (5): BatchNorm2d(64, eps=1e-05, momentum=0.1, affine=True, track_running_stats=True)
      (6): LeakyReLU(negative_slope=0.2, inplace=True)
      (7): MaxPool2d(kernel_size=2, stride=2, padding=0, dilation=1, ceil_mode=False)
      (8): Conv2d(64, 64, kernel_size=(3, 3), stride=(1, 1), padding=(1, 1))
      (9): BatchNorm2d(64, eps=1e-05, momentum=0.1, affine=True, track_running_stats=True)
      (10): LeakyReLU(negative_slope=0.2, inplace=True)
      (11): Conv2d(64, 64, kernel_size=(3, 3), stride=(1, 1), padding=(1, 1))
      (12): BatchNorm2d(64, eps=1e-05, momentum=0.1, affine=True, track_running_stats=True)
      (13): LeakyReLU(negative_slope=0.2, inplace=True)
    )
  )
  (classifier): ADM_Metric(
    (Norm_layer): BatchNorm1d(10, eps=1e-05, momentum=0.1, affine=True, track_running_stats=True)
    (FC_layer): Conv1d(1, 1, kernel_size=(2,), stride=(1,), dilation=(5,), bias=False)
  )
)
==================== The 0-th round ====================
========================================== Start Test ==========================================

=> loading checkpoint './results/Metric_Based_FSL/ADM_Conv64F_Li_Epoch_40_miniImageNet_84_84_5Way_1Shot/model_best.pth.tar'
=> loaded checkpoint './results/Metric_Based_FSL/ADM_Conv64F_Li_Epoch_40_miniImageNet_84_84_5Way_1Shot/model_best.pth.tar' (epoch 34)
…
Namespace(adam=False, aug_shot_num=20, beta1=0.5, clamp_lower=-0.01, clamp_upper=0.01, classifier_model='ADM', cosine=True, cuda=True, current_epoch=39, data_name='miniImageNet', dataset_dir='/home/liwenbin/Datasets/miniImageNet--ravi', encoder_model='Conv64F_Li', episodeSize=1, episode_test_num=1000, episode_train_num=10000, episode_val_num=1000, epochs=40, imageSize=84, lr=0.01, lr_decay_epochs=[60, 80], lr_decay_rate=0.1, mode='train', momentum=0.9, nc=3, neighbor_k=3, ngpu=1, outf='./results/Metric_Based_FSL/ADM_Conv64F_Li_Epoch_40_miniImageNet_84_84_5Way_1Shot', print_freq=100, query_num=10, resume='', shot_num=1, start_epoch=0, test_aug=False, testepisodeSize=1, train_aug=True, way_num=5, weight_decay=0.0005, workers=8)
Fewshot_model(
  (features): Conv64F_Li(
    (features): Sequential(
      (0): Conv2d(3, 64, kernel_size=(3, 3), stride=(1, 1), padding=(1, 1))
      (1): BatchNorm2d(64, eps=1e-05, momentum=0.1, affine=True, track_running_stats=True)
      (2): LeakyReLU(negative_slope=0.2, inplace=True)
      (3): MaxPool2d(kernel_size=2, stride=2, padding=0, dilation=1, ceil_mode=False)
      (4): Conv2d(64, 64, kernel_size=(3, 3), stride=(1, 1), padding=(1, 1))
      (5): BatchNorm2d(64, eps=1e-05, momentum=0.1, affine=True, track_running_stats=True)
      (6): LeakyReLU(negative_slope=0.2, inplace=True)
      (7): MaxPool2d(kernel_size=2, stride=2, padding=0, dilation=1, ceil_mode=False)
      (8): Conv2d(64, 64, kernel_size=(3, 3), stride=(1, 1), padding=(1, 1))
      (9): BatchNorm2d(64, eps=1e-05, momentum=0.1, affine=True, track_running_stats=True)
      (10): LeakyReLU(negative_slope=0.2, inplace=True)
      (11): Conv2d(64, 64, kernel_size=(3, 3), stride=(1, 1), padding=(1, 1))
      (12): BatchNorm2d(64, eps=1e-05, momentum=0.1, affine=True, track_running_stats=True)
      (13): LeakyReLU(negative_slope=0.2, inplace=True)
    )
  )
  (classifier): ADM_Metric(
    (Norm_layer): BatchNorm1d(10, eps=1e-05, momentum=0.1, affine=True, track_running_stats=True)
    (FC_layer): Conv1d(1, 1, kernel_size=(2,), stride=(1,), dilation=(5,), bias=False)
  )
)
==================== The 0-th round ====================
Val-(39): [100/1000]	Time 0.52 (0.53)	Loss 1.16 (1.28)	Prec@1 56.00 (52.36)
Val-(39): [200/1000]	Time 0.53 (0.52)	Loss 1.01 (1.30)	Prec@1 58.00 (51.77)
Val-(39): [300/1000]	Time 0.53 (0.52)	Loss 1.48 (1.30)	Prec@1 48.00 (51.46)
Val-(39): [400/1000]	Time 0.53 (0.53)	Loss 1.18 (1.29)	Prec@1 64.00 (51.93)
…
