…
Namespace(adam=False, aug_shot_num=20, beta1=0.5, clamp_lower=-0.01, clamp_upper=0.01, classifier_model='DN4', cosine=True, cuda=True, current_epoch=39, data_name='miniImageNet', dataset_dir='/home/liwenbin/Datasets/miniImageNet--ravi', encoder_model='ResNet12_Li', episodeSize=1, episode_test_num=1000, episode_train_num=10000, episode_val_num=1000, epochs=40, imageSize=84, lr=0.01, lr_decay_epochs=[60, 80], lr_decay_rate=0.1, mode='train', momentum=0.9, nc=3, neighbor_k=3, ngpu=1, outf='./results/Metric_Based_FSL/DN4_ResNet12_Li_Epoch_40_miniImageNet_84_84_5Way_1Shot', print_freq=100, query_num=10, resume='', shot_num=1, start_epoch=0, test_aug=False, testepisodeSize=1, train_aug=True, way_num=5, weight_decay=0.0005, workers=8)
Fewshot_model(
  (features): ResNet_84(
    (layer1): Sequential(
      (0): BasicBlock(
        (conv1): Conv2d(3, 64, kernel_size=(3, 3), stride=(1, 1), padding=(1, 1), bias=False)
        (bn1): BatchNorm2d(64, eps=1e-05, momentum=0.1, affine=True, track_running_stats=True)
        (relu): LeakyReLU(negative_slope=0.1)
        (conv2): Conv2d(64, 64, kernel_size=(3, 3), stride=(1, 1), padding=(1, 1), bias=False)
        (bn2): BatchNorm2d(64, eps=1e-05, momentum=0.1, affine=True, track_running_stats=True)
        (conv3): Conv2d(64, 64, kernel_size=(3, 3), stride=(1, 1), padding=(1, 1), bias=False)
        (bn3): BatchNorm2d(64, eps=1e-05, momentum=0.1, affine=True, track_running_stats=True)
        (maxpool): MaxPool2d(kernel_size=2, stride=2, padding=0, dilation=1, ceil_mode=False)
        (downsample): Sequential(
          (0): Conv2d(3, 64, kernel_size=(1, 1), stride=(1, 1), bias=False)
          (1): BatchNorm2d(64, eps=1e-05, momentum=0.1, affine=True, track_running_stats=True)
        )
        (DropBlock): DropBlock()
      )
    )
    (layer2): Sequential(
      (0): BasicBlock(
        (conv1): Conv2d(64, 160, kernel_size=(3, 3), stride=(1, 1), padding=(1, 1), bias=False)
        (bn1): BatchNorm2d(160, eps=1e-05, momentum=0.1, affine=True, track_running_stats=True)
        (relu): LeakyReLU(negative_slope=0.1)
        (conv2): Conv2d(160, 160, kernel_size=(3, 3), stride=(1, 1), padding=(1, 1), bias=False)
        (bn2): BatchNorm2d(160, eps=1e-05, momentum=0.1, affine=True, track_running_stats=True)
        (conv3): Conv2d(160, 160, kernel_size=(3, 3), stride=(1, 1), padding=(1, 1), bias=False)
        (bn3): BatchNorm2d(160, eps=1e-05, momentum=0.1, affine=True, track_running_stats=True)
        (maxpool): MaxPool2d(kernel_size=2, stride=2, padding=0, dilation=1, ceil_mode=False)
        (downsample): Sequential(
          (0): Conv2d(64, 160, kernel_size=(1, 1), stride=(1, 1), bias=False)
          (1): BatchNorm2d(160, eps=1e-05, momentum=0.1, affine=True, track_running_stats=True)
        )
        (DropBlock): DropBlock()
      )
    )
    (layer3): Sequential(
      (0): BasicBlock(
        (conv1): Conv2d(160, 320, kernel_size=(3, 3), stride=(1, 1), padding=(1, 1), bias=False)
        (bn1): BatchNorm2d(320, eps=1e-05, momentum=0.1, affine=True, track_running_stats=True)
        (relu): LeakyReLU(negative_slope=0.1)
        (conv2): Conv2d(320, 320, kernel_size=(3, 3), stride=(1, 1), padding=(1, 1), bias=False)
        (bn2): BatchNorm2d(320, eps=1e-05, momentum=0.1, affine=True, track_running_stats=True)
        (conv3): Conv2d(320, 320, kernel_size=(3, 3), stride=(1, 1), padding=(1, 1), bias=False)
        (bn3): BatchNorm2d(320, eps=1e-05, momentum=0.1, affine=True, track_running_stats=True)
        (maxpool): MaxPool2d(kernel_size=2, stride=2, padding=0, dilation=1, ceil_mode=False)
        (downsample): Sequential(
          (0): Conv2d(160, 320, kernel_size=(1, 1), stride=(1, 1), bias=False)
          (1): BatchNorm2d(320, eps=1e-05, momentum=0.1, affine=True, track_running_stats=True)
        )
        (DropBlock): DropBlock()
      )
    )
    (layer4): Sequential(
      (0): BasicBlock(
        (conv1): Conv2d(320, 640, kernel_size=(3, 3), stride=(1, 1), padding=(1, 1), bias=False)
        (bn1): BatchNorm2d(640, eps=1e-05, momentum=0.1, affine=True, track_running_stats=True)
        (relu): LeakyReLU(negative_slope=0.1)
        (conv2): Conv2d(640, 640, kernel_size=(3, 3), stride=(1, 1), padding=(1, 1), bias=False)
        (bn2): BatchNorm2d(640, eps=1e-05, momentum=0.1, affine=True, track_running_stats=True)
        (conv3): Conv2d(640, 640, kernel_size=(3, 3), stride=(1, 1), padding=(1, 1), bias=False)
        (bn3): BatchNorm2d(640, eps=1e-05, momentum=0.1, affine=True, track_running_stats=True)
        (maxpool): MaxPool2d(kernel_size=2, stride=2, padding=0, dilation=1, ceil_mode=False)
        (downsample): Sequential(
          (0): Conv2d(320, 640, kernel_size=(1, 1), stride=(1, 1), bias=False)
          (1): BatchNorm2d(640, eps=1e-05, momentum=0.1, affine=True, track_running_stats=True)
        )
        (DropBlock): DropBlock()
      )
    )
  )
  (classifier): ImgtoClass_Metric()
)
==================== The 0-th round ====================
Val-(39): [100/1000]	Time 0.07 (0.08)	Loss 1.09 (1.27)	Prec@1 58.00 (58.67)
Val-(39): [200/1000]	Time 0.07 (0.07)	Loss 1.49 (1.30)	Prec@1 54.00 (57.54)
Val-(39): [300/1000]	Time 0.07 (0.07)	Loss 1.61 (1.30)	Prec@1 48.00 (57.78)
…
